…
\n        optimizer=tf.keras.optimizers.Adam(1e-3),\n        loss=tf.keras.losses.SparseCategoricalCrossentropy(),\n        metrics=['accuracy']\n    )\n    return model\n\nmodel = build_1d_cnn()\nmodel.summary()\n\nModel: \"model_2\"\n_________________________________________________________________\n Layer (type)                Output Shape              Param #   \n=================================================================\n input_3 (InputLayer)        [(None, 186, 1)]          0         \n                                                                 \n conv1d_6 (Conv1D)           (None, 186, 32)           256       \n                                                                 \n batch_normalization_6 (Batc  (None, 186, 32)          128       \n hNormalization)                                                 \n                                                                 \n re_lu_6 (ReLU)              (None, 186, 32)           0         \n                                                                 \n max_pooling1d_4 (MaxPooling  (None, 93, 32)           0         \n 1D)                                                             \n                                                                 \n dropout_6 (Dropout)         (None, 93, 32)            0         \n                                                                 \n conv1d_7 (Conv1D)           (None, 93, 64)            10304     \n                                                                 \n batch_normalization_7 (Batc  (None, 93, 64)           256       \n hNormalization)                                                 \n                                                                 \n re_lu_7 (ReLU)              (None, 93, 64)            0         \n                                                                 \n max_pooling1d_5 (MaxPooling  (None, 46, 64)           0         \n 1D)                                                             \n                                                                 \n dropout_7 (Dropout)         (None, 46, 64)            0         \n                                                                 \n conv1d_8 (Conv1D)           (None, 46, 128)           24704     \n                                                                 \n batch_normalization_8 (Batc  (None, 46, 128)          512       \n hNormalization)                                                 \n                                                                 \n re_lu_8 (ReLU)              (None, 46, 128)           0         \n                                                                 \n global_average_pooling1d_2   (None, 128)              0         \n (GlobalAveragePooling1D)                                        \n                                                                 \n dense_4 (Dense)             (None, 128)               16512     \n                                                                 \n dropout_8 (Dropout)         (None, 128)               0         \n                                                                 \n dense_5 (Dense)             (None, 5)                 645       \n                                                                 \n=================================================================\nTotal params: 53,317\nTrainable params: 52,869\nNon-trainable params: 448\n_________________________________________________________________\n\n\n\n성능 높이기\n\n한 층 더 추가한다.\n23-&gt;64-&gt;128… 채널 수를 늘린다.\n\n\n\n# 3) 학습\ncb = [\n    tf.keras.callbacks.ReduceLRO
…
ptimizer=tf.keras.optimizers.Adam(1e-3),\n        loss=tf.keras.losses.SparseCategoricalCrossentropy(),\n        metrics=['accuracy']\n    )\n    return model\n\nlstm_model = build_bilstm()\nlstm_model.summary()\n\nModel: \"model_3\"\n_________________________________________________________________\n Layer (type)                Output Shape              Param #   \n=================================================================\n input_4 (InputLayer)        [(None, 186, 1)]          0         \n                                                                 \n bidirectional (Bidirectiona  (None, 186, 128)         33792     \n l)                                                              \n                                                                 \n dropout_9 (Dropout)         (None, 186, 128)          0         \n                                                                 \n bidirectional_1 (Bidirectio  (None, 128)              98816     \n nal)                                                            \n                                                                 \n dropout_10 (Dropout)        (None, 128)               0         \n                                                                 \n dense_6 (Dense)             (None, 128)               16512     \n                                                                 \n dropout_11 (Dropout)        (None, 128)               0         \n                                                                 \n dense_7 (Dense)             (None, 5)                 645       \n                                                                 \n=================================================================\nTotal params: 149,765\nTrainable params: 149,765\nNon-trainable params: 0\n_________________________________________________________________\n\n\n\nGRU\n\n\ndef build_bigru(input_len=L, n_classes=n_classes):\n    inp = layers.Input(shape=(input_len, 1))\n  
…
  optimizer=tf.keras.optimizers.Adam(1e-3),\n        loss=tf.keras.losses.SparseCategoricalCrossentropy(),\n        metrics=['accuracy']\n    )\n    return model\n\ngru_model = build_bigru()\ngru_model.summary()\n\nModel: \"model_4\"\n_________________________________________________________________\n Layer (type)                Output Shape              Param #   \n=================================================================\n input_5 (InputLayer)        [(None, 186, 1)]          0         \n                                                                 \n bidirectional_2 (Bidirectio  (None, 186, 128)         25728     \n nal)                                                            \n                                                                 \n dropout_12 (Dropout)        (None, 186, 128)          0         \n                                                                 \n bidirectional_3 (Bidirectio  (None, 128)              74496     \n nal)                                                            \n                                                                 \n dropout_13 (Dropout)        (None, 128)               0         \n                                                                 \n dense_8 (Dense)             (None, 128)               16512     \n                                                                 \n dropout_14 (Dropout)        (None, 128)               0         \n                                                                 \n dense_9 (Dense)             (None, 5)                 645       \n                                                                 \n=================================================================\nTotal params: 117,381\nTrainable params: 117,381\nNon-trainable params: 0\n_________________________________________________________________\n\n\n\ncbs = [\n    tf.keras.callbacks.ReduceLROnPlateau(monitor='val_loss', factor=0.5, patience=3),\n    tf.keras.
…
